实体识别/v2/tests/test_data/idcnn-crf/idcnn-crf-model.bin (torch, 259599 bytes, 42 tensors)

embedding.weight f4 [11, 100]
000000 67 84 77 be 77 cb 2b bf 1f 16 d8 3f 6d b9 05 bf
       -0.24171601 -0.6710734 1.6881751 -0.5223606
000010 de 9d 7d bf be cb 24 3a 8f 64 98 3f db 91 3a bf
       -0.9906901 0.00062864635 1.1905688 -0.7287881
000020 9c fd c7 3e 1d b4 88 3f 35 7e ad 3f 7b 74 b5 3e
       0.39060676 1.0679966 1.355414 0.3544043
000030 c4 f3 1d 40 47 95 cc ba c2 3f 29 bf 57 88 86 bf
       2.4680033 -0.0015608453 -0.6611291 -1.0510358
000040 e0 5b 9b b9 82 5c b4 be 9f 82 ef bf e2 7c 5b 3f
       -0.00029632356 -0.35226828 -1.8711737 0.8573743
000050 f0 05 2a 3f 26 62 90 3f 95 f0 d2 3f ec 56 ee 3e
       0.6641531 1.1279953 1.647967 0.4655069
000060 2e 9c 35 36 01 cc cb 3e 94 44 3c bf de 7c 11 3f
       2.706201e-06 0.3980408 -0.7354214 0.5683116
000070 d9 bc 8b 3e 1f f8 91 3f 2c d1 e9 3f ef e0 ee b9
       0.27292517 1.1403846 1.8266959 -0.00045562486
000080 ce 14 3f 3f f4 62 46 3f d7 0a d4 3f 49 93 17 3f
       0.7464112 0.7749474 1.6565808 0.59209114
000090 02 5d 76 3e 37 7c 1d bf 6f da d4 3e 2c 66 0e bd
       0.24058917 -0.6151766 0.41572902 -0.034765407
0000a0 85 04 54 be 30 07 52 3f 7e 89 41 bf 94 9e aa bf
       -0.20704849 0.8204222 -0.7560042 -1.3329644
0000b0 47 f4 42 b8 3a cb ed 3f c5 30 3f bf 4f 7d 63 b8
       -4.6480705e-05 1.8577645 -0.7468379 -5.423772e-05
0000c0 46 93 65 bf 3a ec 21 3f a9 97 ff bd 3c 09 dd be
       -0.89677846 0.6325108 -0.12480099 -0.43171108
0000d0 56 4c a6 bf c3 62 53 3e 7b 0d 53 3e 57 91 eb bf
       -1.2992046 0.20643143 0.20610611 -1.8403729
0000e0 69 15 1e 3f 68 fb b4 37 e4 ce 40 3e 76 c5 3e 3a
       0.6175142 2.1574742e-05 0.18828923 0.0007277349
0000f0 25 88 40 3c a0 96 23 be 89 fe 26 be 55 09 12 3e
       0.011751209 -0.15975428 -0.16308035 0.14261372
000100 a7 ca 98 3d ae 52 b7 b7 a2 65 0c bf 18 4f ac be
       0.07460528 -2.18538e-05 -0.5484258 -0.33654094
000110 87 9d 66 bf d4 ec e3 3f 0a 5e ca 3f 2d 5a ad b8
       -0.9008412 1.7806649 1.5809948 -8.2660794e-05
000120 97 18 aa 3f 85 b9 b8 3f 99 66 1a bf 39 15 fa be
       1.3288754 1.4431616 -0.603128 -0.48844317
000130 29 eb 03 3f 9d 36 f3 3f db 5b 15 bf 43 0c 15 bf
       0.515307 1.9001042 -0.58343285 -0.58221835
000140 35 c2 21 3e 90 22 5b 3f 06 15 06 c0 6c f3 3a bf
       0.1579674 0.85599613 -2.0950332 -0.7302768
000150 05 81 66 3f f7 b7 48 be d8 df 22 c0 93 38 fd bf
       0.9004062 -0.19601427 -2.5449123 -1.978289
000160 eb 5c 77 3f 07 3b 96 3f 09 4e 28 3f ba 7f 86 3e
       0.96626157 1.1736764 0.6574407 0.26269323
000170 6b 07 9d bf 44 7d 3c be 5c 1a 62 b7 97 ce 6d be
       -1.2267889 -0.1840716 -1.3476787e-05 -0.23223339
000180 27 ef 5e 3e 80 50 25 3e 3d 98 ef 3e 01 3b 10 bd
       0.21770917 0.1614399 0.46795836 -0.03521252
000190 1a 9b 34 3f 32 06 ac bc 75 74 b5 bf e4 b7 0e 3f
       0.70549166 -0.020999048 -1.4176165 0.55749345
0001a0 e0 9d 62 be 5e 3b 88 3f e5 4a 79 bd b8 b9 ae bf
       -0.22130537 1.0643117 -0.06086244 -1.3650427
0001b0 2b 7d 42 3e 1e 09 bb 3f 73 8e 26 bf 55 2c cb be
       0.1899306 1.4612157 -0.6506111 -0.3968226
0001c0 c0 38 0b 3d a5 26 1c 3f 06 fe 0c 3f 18 0d 1d 40
       0.033989668 0.60996467 0.5507511 2.4539242
0001d0 18 54 89 3e 17 d6 cb 3f 4e f3 4a bf a8 52 99 bf
       0.2682197 1.592471 -0.79277503 -1.197835
0001e0 49 1f 9b 3f 4c 1f 83 bc a1 a9 93 3f 60 d2 99 3f
       1.2118922 -0.016006134 1.1536142 1.2017326
0001f0 7b 10 f2 3f 4b cd 6a bf 6e 1d 01 bf d2 e1 71 3e
       1.891128 -0.917195 -0.5043553 0.236213
000200 4e 32 85 bd 79 a0 89 3e e5 fe de bf a3 c5 3d 40
       -0.065037355 0.26880243 -1.7421538 2.9651878
000210 87 b7 d9 3e 2d 5c f4 3e 50 80 c6 3e a6 43 7b 3f
       0.42522833 0.47726575 0.3876977 0.981501
000220 cd 82 28 c0 8e 57 5f bf 5f 18 a5 bf 79 d2 2a bf
       -2.6329834 -0.8724297 -1.2898062 -0.66727406
000230 f2 77 ac be 72 0b 23 bf db 76 b4 bc 41 b5 21 3f
       -0.3368526 -0.6368934 -0.022029331 0.63167197
000240 05 fb 2e bd 8d cb e2 be 70 e2 76 bd 0e a2 ae be
       -0.04271986 -0.44295922 -0.06027454 -0.34108013
000250 39 c6 8a 3e af e2 dc bd 85 09 16 bf 47 58 eb 3e
       0.27104357 -0.10785424 -0.58608276 0.45965788
000260 45 24 b6 bf 14 9b 35 bf 69 08 ec 3f 66 4c 0e bf
       -1.4229819 -0.70939755 1.8440067 -0.55585325
000270 5f 84 e8 3f 57 1d 6f bf 37 9a 0d bf 16 10 26 3e
       1.8165396 -0.93404144 -0.5531344 0.16217074
000280 a6 6a e3 bf e4 09 91 bd 9b 62 74 3f 0e 7e 4c 3e
       -1.7766922 -0.070819646 0.9546296 0.19969961
000290 f6 07 9a 3f 59 72 05 bf 6a 21 49 3f 5e b5 e8 3d
       1.203368 -0.52127606 0.7856661 0.11362718
0002a0 b8 6e aa be a8 7b 14 bf 6c dd be 3e f7 18 36 bf
       -0.33287597 -0.58001184 0.37278306 -0.71131843
0002b0 9c 0c 2c bf 14 82 93 3f 84 b4 59 3f ad c1 b1 bf
       -0.6720674 1.1524072 0.8504107 -1.388723
0002c0 00 0e 76 3b f1 22 b3 bd c9 7d 53 be aa 3d ee be
       0.0037544966 -0.08746899 -0.20653452 -0.4653142
0002d0 21 aa 84 bf 10 59 c1 3e 8b f5 00 bf 21 66 29 3f
       -1.0364419 0.37763262 -0.5037467 0.6617146
0002e0 3c 8e 8d 3f 09 d7 bc 3f 29 85 ff 3e bc 24 72 3f
       1.1059031 1.4753124 0.4990628 0.945873
0002f0 b2 a0 47 3e a6 22 22 bf 52 fd 61 3e f8 1b 19 3f
       0.19494894 -0.6333412 0.2206929 0.598083
000300 91 01 a4 3e be ba c3 3d dd 44 ab 3f e2 6e 92 bf
       0.32032445 0.095571026 1.338039 -1.1440089
000310 46 d6 df 3e 2d 17 c1 be 32 ea 87 bf 68 89 8e 3f
       0.43718165 -0.37712994 -1.0618346 1.1135683
000320 30 8c 92 be ff 3e 17 bf ce 4e 42 bf e1 48 84 bf
       -0.2862258 -0.590805 -0.75901496 -1.0334741
000330 07 93 d3 bf d3 76 c0 3d 34 10 69 3f 02 ac f2 bf
       -1.6529244 0.09397664 0.9104035 -1.8958743
000340 19 03 07 bd 0a 9d b6 3d af 9e 54 bf fe 93 47 be
       -0.03296194 0.089166716 -0.8305463 -0.19490048
000350 d9 93 51 3f e3 32 fb be 31 d7 5e bf 8d 48 83 3d
       0.8186622 -0.4906226 -0.87047106 0.06410322
000360 36 87 10 3e ce 1d 59 bc ea ce c8 bf 62 63 16 bf
       0.14114079 -0.013251735 -1.5688145 -0.58745396
000370 a9 39 16 3f 8b 5b 3a 3e da c9 f0 be b9 db 7e 3e
       0.5868173 0.18198983 -0.47029 0.24888505
000380 6d 08 29 3f f6 5d d0 3f 5c b5 30 40 63 78 59 bf
       0.6602848 1.6278675 2.7610693 -0.8494932
000390 75 07 e2 3e 43 65 b7 be 00 f6 85 bf 68 92 79 3f
       0.44146314 -0.35819444 -1.0465698 0.97489023
0003a0 b7 c7 8f 3f d4 6d b0 be 79 85 00 40 d4 09 12 3f
       1.1232823 -0.34458792 2.0081465 0.57046247
0003b0 f8 d3 83 3f d4 22 c6 bf 27 2f ef be 0d 2b 4e bf
       1.0299063 -1.5479379 -0.46715662 -0.8053444
0003c0 82 48 6a be fd 69 98 be a7 14 1d bf 18 d7 d1 bf
       -0.22879222 -0.29768363 -0.6135964 -1.6393766
0003d0 3f d7 d1 bf 84 f6 cd bf 6b ea 15 3f b0 59 95 be
       -1.6393813 -1.6090856 0.5856082 -0.2916999
0003e0 91 6e 86 bf aa 47 8d bc 4d 89 2a 3b 73 bc ee bf
       -1.0502492 -0.017246086 0.002602178 -1.865126
0003f0 5d 23 1d bf 6d d4 12 3e e0 f7 84 bf f0 11 b3 bf
       -0.61382085 0.14338847 -1.0388145 -1.3989849

idcnn.linear.weight f4 [64, 100]
000000 30 ae 89 3c aa e8 70 3c ef df f3 3c 30 5e 37 bc
       0.016806692 0.014703909 0.029769866 -0.01119189
000010 fb 18 00 ba 8c b3 9a 3d 76 49 98 3c 23 2f b8 bd
       -0.0004886535 0.07553777 0.018589716 -0.089933656
000020 87 fb c9 bb 62 b5 be 3d c0 17 82 3d 79 59 2e bd
       -0.0061640176 0.0931194 0.06352186 -0.042565797
000030 c9 4b b4 3d eb 32 83 bd 65 4f 35 bd 1a d5 a3 3d
       0.08803517 -0.06406196 -0.04426517 0.0799963
000040 e0 1d 79 bc 4d 21 b7 3d df cb a3 bd bb e2 6c bc
       -0.015204877 0.089418985 -0.0799787 -0.014458354
000050 ea fc 1f 3c 65 e0 fb bc c5 5e e6 3b 2e f8 58 bd
       0.009764889 -0.030746648 0.0070303404 -0.052971058
000060 19 9c 71 bd 29 5e 80 3d 16 33 0a bc 1b d3 35 3d
       -0.058986757 0.062679596 -0.008435031 0.04439078
000070 06 5a ec bb 82 6d 53 bd a7 a5 d1 bc e3 e8 c7 3d
       -0.00721288 -0.051618107 -0.025591685 0.097612165
000080 ae 84 eb bc b5 dc 90 bd b2 ce 8e 3d 3a d6 10 bc
       -0.02874979 -0.070733465 0.06973018 -0.008840138
000090 4a 2a e5 3c 1a 79 4c bd a0 c5 0b bd ab c3 8b 3c
       0.027974267 -0.04992018 -0.034124017 0.017061075
0000a0 dd 60 a0 3b a6 bf 4d bd ef 66 8c bb 66 e4 cb bc
       0.0048943595 -0.0502316 -0.0042847316 -0.024889182
0000b0 0d 09 20 bc f7 fd ac 3d 0a a3 1f 3d d9 d6 d3 3c
       -0.009767783 0.084468774 0.038973846 0.025859283
0000c0 f9 45 bd 3c 3a 5e b9 bc 32 28 08 3d 8c 0c 7c bc
       0.023104655 -0.022627939 0.03324146 -0.015383851
0000d0 df 82 43 bc 68 af bd 3c c4 89 e5 3a 2c 87 36 bd
       -0.011933058 0.02315493 0.0017512371 -0.044562504
0000e0 69 04 fd bc de dd e0 bc be bb e1 bc 21 11 4c 3d
       -0.030885892 -0.027449545 -0.027555343 0.049821023
0000f0 08 0b 02 bd df b6 70 bd 2e 5f 27 bc 1e da 9a 3b
       -0.0317488 -0.05876815 -0.010215564 0.0047257086
000100 2c b9 d5 3c 91 5c bc bc 2b 44 7f bd bd 9d bd 3d
       0.026089273 -0.022993358 -0.06232087 0.09258602
000110 91 1a e8 bb 4f 70 ae bd 74 48 bf 3d f5 b2 db bd
       -0.007083245 -0.08517515 0.09339991 -0.10727493
000120 36 fe 52 3c 75 70 41 bc 1f 54 a2 bd 31 31 45 bd
       0.012877991 -0.011806597 -0.07926201 -0.048142616
000130 ad 5c a5 3d 27 87 8e bc c7 e5 e1 3c d1 6b a7 bd
       0.08074317 -0.01739843 0.027575387 -0.08174861
000140 73 50 7f 3d e4 d0 30 3c 5b 5d b4 3c 8e 92 9d 3d
       0.06233258 0.010791991 0.022017172 0.07693969
000150 ec 76 68 3d 3d c3 6f 3d 76 6c 89 bc fd c7 9d bd
       0.056754038 0.058535803 -0.016775351 -0.0770416
000160 5e db 60 3d b6 d9 e8 bb c6 11 41 bd 8a c3 ad 3d
       0.054896705 -0.0071060313 -0.04713609 0.08484562
000170 2a a6 6c 3a 4f 83 1a 3d fd c3 a7 bd 6b f5 48 3d
       0.0009027446 0.037722882 -0.08191679 0.049062174
000180 bd 1c 15 3d 8b eb a1 bc 22 81 8c 3b 99 c9 c6 bc
       0.03640436 -0.019765636 0.004287855 -0.024266051
000190 59 e2 d3 bc c3 8d 80 3d e5 21 02 bd c2 55 aa bc
       -0.025864767 0.06277039 -0.031770606 -0.020792846
0001a0 ea 2a b7 3c d6 0f 5f bb 16 cf 81 bd bd 3e 8a 3d
       0.02235933 -0.0034036539 -0.06338327 0.06750248
0001b0 7b 61 ae 3d ac c5 07 3b 09 42 30 bc 2b b0 f7 bb
       0.08514687 0.0020717187 -0.0107579315 -0.0075588427
0001c0 b6 03 20 bc dd 6a 86 3d 83 76 3e bd 6b 0f 11 3d
       -0.00976651 0.06563351 -0.04649974 0.035415094
0001d0 5c f3 ad bd 6a e0 f9 bb 89 42 c6 3d 8f 9e ab 3c
       -0.08493683 -0.007625629 0.09680659 0.02094963
0001e0 1e 18 18 bb 67 66 8c ba 79 81 0c 3d 76 4d aa 3d
       -0.0023207734 -0.0010711671 0.034303162 0.08315556
0001f0 50 c7 6c bd 3d c5 92 bd ff f6 89 bd 3d 0f 72 bd
       -0.057807267 -0.071665265 -0.06736564 -0.059096564
000200 b2 f3 93 3d 40 20 3f 3d 42 b1 8e 3d 3d c5 22 bd
       0.072242156 0.046661615 0.06967403 -0.039738882
000210 d1 9a 6a bd fe 9d 86 3d 20 c8 6d 3d 14 25 b0 3d
       -0.05727655 0.06573103 0.058052182 0.08600822
000220 eb 5c 6d bd 02 e8 81 bc de 22 08 bd 31 ac c7 3d
       -0.05794994 -0.0158577 -0.033236377 0.0974964
000230 a7 17 8f bd c1 09 5b bd 76 32 b5 bc c8 f1 aa bd
       -0.06986933 -0.0534761 -0.022118788 -0.08346897
000240 07 84 31 bd 41 a8 9c bd 77 7a 80 3d 62 f2 00 3d
       -0.0433388 -0.076492794 0.06273358 0.031481154
000250 0c 3d b8 bd 66 bb b7 3d e8 93 51 3d 38 61 46 bd
       -0.08996019 0.0897129 0.051166445 -0.04843256
000260 1f 04 2e bc 4f 24 bd 3c 3c 04 5a bd 96 86 ae bd
       -0.0106211 0.023088602 -0.053226694 -0.08521764
000270 6a 90 97 3c 91 54 e0 bc 39 8b 02 3d ac 3e bd 3d
       0.01850148 -0.027384074 0.031871054 0.09240469
000280 d4 01 af 3d 91 3f 45 3d a0 c3 af 3d b1 ff 6f 3d
       0.085452706 0.048156325 0.085822344 0.058593456
000290 43 7a ab 3c 87 8e 65 bd b6 c4 af bd e1 43 eb bb
       0.020932322 -0.056044128 -0.085824415 -0.0071797227
0002a0 41 24 0a 3d cc b7 99 bd 2c 18 3d 3d 09 2e d3 3c
       0.03372598 -0.075057596 0.04616563 0.025778787
0002b0 2d 55 ba 3d 8e a7 c6 bb f3 e3 63 3c 11 e4 70 bd
       0.09098277 -0.0060624545 0.013909328 -0.05881125
0002c0 cb 79 10 bd 9e 38 30 3c ce fa 46 3d c8 42 a3 bd
       -0.0352724 0.010755686 0.04857903 -0.07971722
0002d0 13 4b 44 3d 45 b8 8a bd 28 6e 80 bd 33 42 9e bd
       0.04792316 -0.06773428 -0.06271011 -0.0772747
0002e0 58 af 2c 3d 12 aa 44 3d 2c c2 71 bd 6b b1 83 bd
       0.04215941 0.048013754 -0.059023067 -0.06430324
0002f0 45 9e 12 bd 80 ec b9 3d 44 ee 91 bc ce 02 69 3d
       -0.03579547 0.09078312 -0.01781381 0.05688744
000300 6a d2 97 3c 8b c4 91 bd 5f a1 86 bd ee 78 25 bc
       0.01853295 -0.07117566 -0.06573748 -0.010099633
000310 ae 77 3c bb c2 da 87 bc 91 6a 89 bd 63 5d e6 3c
       -0.0028757858 -0.016583804 -0.06709779 0.028120702
000320 ff 95 a1 3d 44 fa 7c 3d d8 c5 46 3d cb 3d e5 bc
       0.078899376 0.06176211 0.048528522 -0.027983567
000330 97 57 0f 3d 35 bd 9a 3d db 99 03 bb 0e 77 a1 bd
       0.03499564 0.075556196 -0.0020080719 -0.07884036
000340 c1 5f 58 3d d1 75 68 3d a4 23 63 bd 52 e8 77 bd
       0.052825693 0.056752983 -0.05545391 -0.060524292
000350 9c dd aa bd e9 c6 af bd 4d 37 11 3d 1d 7c 90 bd
       -0.0834305 -0.08582861 0.03545313 -0.07054923
000360 45 37 bc bd e3 26 6f 3d 40 4a 0d bd df 7e bf bd
       -0.09190229 0.058386695 -0.03449464 -0.093503706
000370 aa 57 ab bd d3 8a dc bc 54 b6 98 3d 86 e0 96 bd
       -0.0836633 -0.026921665 0.07456651 -0.07367043
000380 fc 06 8e bd 3c ca 0e bc 4f 5a 18 3b dd 6f b2 bd
       -0.06934926 -0.008715209 0.0023247187 -0.087127425
000390 45 b7 e0 3c fd f4 a3 bc e7 f1 51 3d 43 d0 c4 3b
       0.02743114 -0.02001428 0.051256087 0.006006272
0003a0 af e1 21 3d f3 9a 96 3b 06 39 10 bd d5 03 4e 3d
       0.03952187 0.004596108 -0.03521063 0.050296623
0003b0 c2 ec 69 3c 29 27 a8 3d 26 de 92 bd 04 bf ae bd
       0.014277639 0.08210594 -0.07171278 -0.08532527
0003c0 60 4b 8e 3d 88 f6 a3 bb a4 9a fe bc 0e ab 79 3d
       0.069479704 -0.005003754 -0.031079598 0.060954146
0003d0 42 7e 44 bd 07 4d a0 bd 5a e9 b4 3b af 7a a3 3d
       -0.04797197 -0.07827192 0.0055209817 0.079823844
0003e0 5d 80 5d bd 80 cd 50 bd 7c dc 24 bd 57 f7 30 bd
       -0.054077495 -0.05097723 -0.040249333 -0.04320463
0003f0 02 bb 21 3c b7 13 5f bd 22 1a 41 3d 84 35 05 3d
       0.009871246 -0.05446216 0.047144063 0.03252174

idcnn.linear.bias f4 [64]
000000 3f 71 a6 bc ac a5 96 bd ce 65 2b 3d 1b d0 85 3d
       -0.020317672 -0.07355818 0.041845135 0.065338336
000010 75 21 67 bd 75 17 95 3d 82 9d ad 3c fc 5b cf bd
       -0.05642839 0.07279865 0.02119327 -0.101249665
000020 a9 34 58 3d b9 7f 5b bd b0 45 d6 3c 0e d1 63 bc
       0.052784596 -0.053588603 0.026156276 -0.013904823
000030 b4 71 00 3c a3 43 70 bd b6 c8 f7 bc 54 3a fe 3c
       0.007839609 -0.058658253 -0.030247074 0.031033672
000040 07 77 85 bd b3 6a 56 bd 56 4c 3e 3d 75 97 1a 3d
       -0.06516843 -0.05234785 0.04645952 0.037742097
000050 eb 5b 90 bd d6 f9 a5 3d 13 89 af 3b c8 ac a8 bd
       -0.07048782 0.08104293 0.0053569167 -0.082360804
000060 03 38 5d bd 3e 04 36 3d 01 7d 90 bc b5 0c 45 bc
       -0.054008495 0.04443764 -0.017637732 -0.012026955
000070 e6 56 a8 3c dc 17 08 bc 92 6b 5b bd 42 5b 87 3d
       0.020549249 -0.00830647 -0.053569384 0.06609203
000080 2b 75 25 3b 2c 46 a8 3d 6a e1 18 bd e0 c9 98 bd
       0.002524684 0.08216509 -0.037324347 -0.074603796
000090 03 d4 04 bd 0e 79 bc bd 90 da 1c 3d f8 8a 95 3d
       -0.032428753 -0.09202777 0.038294375 0.07301897
0000a0 21 bd d8 3d fd c8 04 3c 45 59 8b bd 5e 3e 3d 3b
       0.105829485 0.00810456 -0.06804136 0.0028876285
0000b0 d2 91 5a 3d 86 ab 13 bc 52 60 a9 bd b6 5e 21 bd
       0.05336172 -0.009013062 -0.08270325 -0.039396964
0000c0 2e 88 36 bd 30 27 10 3d 42 07 4e 3d 0d de 73 bc
       -0.044563465 0.035193622 0.05029989 -0.014884484
0000d0 c5 b2 59 3d 4b 9b 4c bd 45 a5 05 bd 9f 99 db 3b
       0.053149004 -0.049952786 -0.032628316 0.0067016627
0000e0 5d b0 c9 bd d2 4e aa bd 21 ef 70 bd 20 9a 46 bd
       -0.09848092 -0.08315815 -0.0588218 -0.04848683
0000f0 c0 3a 5c bd 70 4a 0c 3d c2 4f a9 b5 54 7b ee 3c
       -0.053766966 0.034250677 -1.2614694e-06 0.029111542

idcnn.idcnn.block0.layer0.weight f4 [64, 64, 3]
000000 c2 f2 ff bc 24 f6 52 bb 22 5c 50 bd ab d7 da 3c
       -0.031243686 -0.0032190168 -0.050869115 0.026714167
000010 82 07 79 3c 9f e4 14 ba 50 97 49 3d 8e 2c 59 bc
       0.015199544 -0.0005679819 0.04921657 -0.013255252
000020 cf dc 5b bd 2c 14 20 3c 3c 4f 97 bd ad 8f cf 3b
       -0.053677376 0.009770434 -0.0738816 0.006334266
000030 9d 72 8b 3c 9b 2a c3 3b bb 3f f3 3c 76 6a 37 bd
       0.017022425 0.0059560067 0.029693475 -0.044779263
000040 3f 25 80 bd f1 08 9f bc 49 f9 56 3d 3d ce 1b bd
       -0.06257104 -0.019413443 0.05248383 -0.03803848
000050 38 71 3b bd 20 7d 26 bd ef a0 25 bd 43 f2 a1 bc
       -0.04576227 -0.040646672 -0.04043668 -0.01976884
000060 c3 7a 5e bd bc 80 1d bd 76 5a e6 bc 65 0c a1 bd
       -0.054316293 -0.03845285 -0.028119307 -0.07863692
000070 8f ad 0c bd 96 98 51 bd 68 1d 37 bd 6a e7 b1 3c
       -0.034345206 -0.051170908 -0.04470578 0.021716792
000080 f7 30 23 bb ba 79 0d 3d 69 28 8d 3d c9 6f 7c 3d
       -0.0024901011 0.034539916 0.06892473 0.061630044
000090 d7 2a 33 3d e2 4d b6 bc a7 46 67 bd 13 f9 90 bc
       0.043742027 -0.022253934 -0.056463864 -0.017696893
0000a0 7c 43 88 bc f7 f9 40 3d 39 83 5b bd dc aa e9 3c
       -0.016633742 0.047113385 -0.05359194 0.028523855
0000b0 95 7c b0 bb d5 0b 15 3d 84 77 eb 3c 29 ef af bc
       -0.005385945 0.036388237 0.028743513 -0.021476345
0000c0 9c 32 29 bc 8d 26 88 bd aa 19 7c 3d 23 d8 5b bd
       -0.010327008 -0.06647978 0.061547913 -0.05367292
0000d0 89 c1 a3 bc 1a 1a bc 3c 26 c1 54 3d bd c0 5f bd
       -0.019989746 0.022961665 0.051942013 -0.05462717
0000e0 9b fc 2a 3d 5b 80 cb bc 28 43 82 bb 60 39 c5 39
       0.04174481 -0.024841478 -0.003975291 0.00037617516
0000f0 fc b3 24 3d b3 fe dc bc 1f e3 29 bc 2c 80 0a 3d
       0.04021071 -0.026976919 -0.010369091 0.03381364
000100 0b e7 80 bd f0 54 1e bd b4 10 75 bc 18 13 43 3d
       -0.06294068 -0.03865522 -0.014957596 0.04762563
000110 09 06 a3 3d f0 bb 2f bd 47 d9 8c 3d d0 48 95 3d
       0.079601355 -0.04290384 0.0687738 0.072892785
000120 9c e7 46 bd 43 99 48 3d 82 32 5b 3d 64 3c 8b 3d
       -0.048560724 0.048974287 0.053514965 0.06798628
000130 c5 27 8f 3d 3c 21 9e 3c fc 7a b4 3c a3 63 17 3b
       0.06990007 0.019302957 0.0220313 0.002310016
000140 e2 b7 1f 3d 00 51 60 3c b2 6d 32 bd 56 51 4a 3d
       0.038993724 0.013691187 -0.043561645 0.049393974
000150 e5 a5 66 bd 0f d2 99 bc ed 68 0b bc 17 2b c9 3c
       -0.056310553 -0.018776922 -0.008508903 0.02455668
000160 6e ab 55 3d d2 36 0e bc 8d 2c 74 bc e3 0c 97 3c
       0.05216544 -0.008680062 -0.0149032 0.018438762
000170 f4 3b 9b 3d 7e 2d d3 bc 45 e5 73 3c 19 79 70 3d
       0.075797945 -0.025778528 0.014886205 0.058709238
000180 e2 4b 16 3d cc 3f 00 3d 61 d0 3d bd d3 18 42 3d
       0.03669346 0.03131084 -0.046341304 0.047386955
000190 f1 27 0e bc 0f 71 70 3d 9f 04 bf 3a 35 34 33 3d
       -0.008676515 0.05870157 0.0014573521 0.04375096
0001a0 ac 77 34 bd bb ef 59 3d bc 80 2f 3d 8e 47 05 bc
       -0.04405944 0.05320714 0.04284738 -0.008134736
0001b0 59 d6 11 3d d4 98 38 3d e5 05 a9 3c dc 8c 0c 3c
       0.03560481 0.045067623 0.020632694 0.008578505
0001c0 7d e1 5f bc 15 93 71 bc c1 bf b3 3c f7 f5 d6 bc
       -0.0136646 -0.01474454 0.021942021 -0.026240332
0001d0 a2 d3 5c 3c e8 b1 96 3c e5 ef bf bb 3e 31 36 3d
       0.013478192 0.01839538 -0.005857455 0.044480555
0001e0 6c ba 45 bc dc 7a 0d bd 5f a6 68 3d bb 62 d2 bc
       -0.012068372 -0.034540996 0.05679929 -0.025681844
0001f0 b3 b4 55 bd 18 b7 6f b9 10 79 2d 3d ab 94 20 bd
       -0.05217428 -0.00022861024 0.042351782 -0.03920428
000200 42 bf 27 bd 8d 66 c1 ba 12 e1 98 bd 7a 69 83 bd
       -0.040953882 -0.0014755294 -0.07464804 -0.064166024
000210 42 8f 29 bd fd 1e 44 3d 5c 75 c9 3b 8b 83 1a 3d
       -0.041396387 0.047881115 0.0061480235 0.037723105
000220 a5 f0 bf bc 0b f5 a4 3d df 54 7c bd 35 72 c0 bb
       -0.023430178 0.08054551 -0.061604377 -0.0058729895
000230 0f 79 30 3d a3 30 52 bd 12 d1 b2 3c 9c f3 c7 3c
       0.0430842 -0.051315915 0.021828208 0.024408154
000240 09 00 c0 3c aa c5 0c 3d 87 4d 1a bc ef 79 72 bd
       0.023437517 0.034368195 -0.009417898 -0.059198316
000250 17 ed 70 3c c1 0f fe 3c 16 c8 85 bd b1 45 fd 3c
       0.014704964 0.031013371 -0.06532304 0.03091702
000260 01 96 7d 3d 79 3e 64 bc 2e e4 19 3d e4 0a 46 bd
       0.061910633 -0.01393091 0.037571125 -0.04835023
000270 4f 4a 72 bd 6f b2 1e bd 7c 74 5b 3c e1 ed 11 bd
       -0.059152897 -0.038744386 0.013394471 -0.03562725
000280 f8 29 d0 bc 5e 09 b1 3c f4 54 ba bb 1e c5 4e bc
       -0.025410637 0.021610912 -0.0056863967 -0.012620239
000290 af d0 69 bd 38 5d 80 3c 6c db 8a bd 0d 87 a7 3c
       -0.05708378 0.01566945 -0.06780133 0.02045014
0002a0 e2 8a dc 3c 0e ee 91 bb 1d cd 85 3b 4e 0f 01 3c
       0.026921693 -0.004453427 0.0040832893 0.007877184
0002b0 b4 fb 9d 3d b9 de 64 bd 6f ea 01 3d 71 0d 3e 3d
       0.07714024 -0.055876467 0.031717714 0.046399537
0002c0 1c 6e e6 3b b0 0a 47 3d fc 61 e8 bc 08 c9 10 3d
       0.007032169 0.048594177 -0.028367035 0.03534797
0002d0 91 6e 43 bd 45 1d e1 39 3a 93 82 3d 52 50 fc 3c
       -0.047712866 0.00042937152 0.063757375 0.030800018
0002e0 aa 37 8e bd 73 8e 6d bd a3 d4 95 bc 8c 08 3f 3d
       -0.06944211 -0.05799718 -0.01828987 0.04663901
0002f0 fb 36 c3 3b 1f 01 5c bd b9 42 bf bc 9a 5f 9b 3d
       0.005957482 -0.053712007 -0.023347246 0.07586594
000300 a9 05 7c bc 54 12 77 3d 94 af cd bc 16 da 30 bd
       -0.015382209 0.060320213 -0.025108136 -0.043176733
000310 05 07 7a ba 60 80 57 3d 0c 9f df bc 48 dc f6 bc
       -0.0009537789 0.052612662 -0.02729752 -0.030134335
000320 76 75 c5 39 9e 8e 42 3d e6 73 6c bd f5 39 7a bc
       0.00037662283 0.04749929 -0.057727717 -0.015272607
000330 24 1f db 3c 45 32 8c 3d 01 ff 85 bd f5 45 19 bc
       0.026748247 0.06845526 -0.06542779 -0.009355058
000340 0c ae 6d bd af b1 00 bd 64 7f 86 bc 36 de 81 3c
       -0.058027312 -0.031419452 -0.016418166 0.015853029
000350 53 f7 93 bd 9a 11 18 bb d1 ac 4b bc ec d5 00 bd
       -0.07224908 -0.002320385 -0.012431339 -0.03145401
000360 33 21 17 bd fb ba 2a bd a4 64 39 3c 88 28 2f bc
       -0.036896896 -0.041682225 0.0113154985 -0.010690816
000370 6a 76 95 bc d8 2b f6 bc 55 99 80 bc 1d bd 09 3d
       -0.01824494 -0.030050203 -0.015698114 0.033627618
000380 2d 6d f5 3b 4c 4d 5e 3d 2d ce fb bc f4 d6 8f bd
       0.0074898214 0.054272935 -0.03073796 -0.07023421
000390 6e 22 86 3d 6a c1 28 3c 97 d9 27 bc c6 37 43 bb
       0.06549536 0.01030002 -0.010244749 -0.0029787882
0003a0 3e 11 86 bb 4e 85 82 bd 8c 07 b2 3b ab 86 36 bd
       -0.004091411 -0.06373082 0.0054330286 -0.044562023
0003b0 2e 9c b9 bb 8c d6 a1 3c f1 02 4a bc 37 ca 8f 3d
       -0.00566437 0.019755624 -0.012329803 0.07020991
0003c0 99 23 bf bc 3f f1 b7 3c 5e 6e 5f 3d 32 75 fc bc
       -0.023332404 0.022453902 0.054548614 -0.030817602
0003d0 e6 4c 64 bd 89 5a dc bb e1 13 85 3d 0c 58 8a 3d
       -0.0557374 -0.00672466 0.06497932 0.06755075
0003e0 d7 98 81 bd 3a f4 5f bd fd fc 82 3d 4e ed 2b bd
       -0.0632798 -0.054676272 0.0639591 -0.04197436
0003f0 6a 97 49 3d c3 74 7d 3c 25 fd f6 3c d2 69 a3 3d
       0.049216665 0.015469733 0.030150006 0.07979168

idcnn.idcnn.block0.layer0.bias f4 [64]
000000 91 22 96 bd c6 43 3e 3d df 80 a2 bb 07 86 0d bd
       -0.07330812 0.046451353 -0.0049592103 -0.034551647
000010 76 31 70 3d 9b e4 e7 3c ce 42 8b bd 9e fc 67 bd
       0.05864092 0.02830725 -0.06799851 -0.0566374
000020 f1 5e 6e 3c 43 ea 77 bd b7 47 eb bb 04 4d 24 3d
       0.014549003 -0.060526144 -0.00718018 0.04011251
000030 39 c8 0d bd 58 2b 6d bd 59 f1 a9 bd 46 ea 96 3c
       -0.034614775 -0.057902664 -0.082979865 0.018422257
000040 63 3a 3e 3d 07 aa 33 3d f8 9e 42 bd 4c d4 3c 3d
       0.0464424 0.043863323 -0.047514886 0.0461009
000050 f5 b9 70 3d 3e 41 26 bd de 5a 84 bd b8 32 84 bd
       0.058771092 -0.040589564 -0.06462644 -0.06454986
000060 03 4e c1 bc b8 e3 5e 3d 65 60 f3 3b c2 4b 75 bc
       -0.02359677 0.05441639 0.0074272626 -0.014971675
000070 5f 71 f3 bc 81 0a 7c bc 47 72 79 bc e3 b8 c6 bc
       -0.029717145 -0.015383364 -0.015225 -0.024258083
000080 e9 73 88 3d 59 47 a2 bd 46 1a 4a 3d db 27 95 3d
       0.06662733 -0.07923765 0.049341463 0.072829925
000090 18 97 73 bd d3 a9 66 3d d2 dd 23 3d d1 34 37 3d
       -0.059470266 0.0563143 0.040006466 0.044728104
0000a0 ec 39 f8 bc 10 97 6d 3d 64 59 3d bd ce 22 14 3d
       -0.030301057 0.058005393 -0.046227828 0.036166005
0000b0 f8 ae 87 3d 09 8a 06 bc 5e b4 19 3c cb 5b 11 3c
       0.066251695 -0.008211621 0.009381382 0.008871983
0000c0 91 c0 bd 3c 9a a4 c5 bb 33 03 04 3c 93 25 8c 3b
       0.023163112 -0.006031585 0.008057403 0.00427694
0000d0 f6 fe 45 3d 41 96 ca 3c 43 63 92 3b 74 30 a1 bd
       0.048338853 0.02472985 0.0044673993 -0.0787057
0000e0 f6 4b af bc 11 e5 03 3d e4 39 84 3c 9c 16 2f 3c
       -0.021398526 0.032200877 0.016140886 0.010686543
0000f0 9c 52 50 bd d1 fe 82 3d ad a0 66 bd 3c 4f c7 3c
       -0.050860032 0.063962586 -0.056305576 0.024329774

idcnn.idcnn.block0.layernorm.a_2 f4 [10]
000000 2f 07 84 3f 5a 20 84 3f ae 61 83 3f cf 96 83 3f
       1.0314692 1.0322373 1.0264184 1.0280398
000010 0a 85 82 3f 02 2b 81 3f ed 62 81 3f c7 28 81 3f
       1.019685 1.009125 1.0108315 1.0090569
000020 f8 ef 78 3f 3c 4c 77 3f
       0.97241163 0.966007

idcnn.idcnn.block0.layernorm.b_2 f4 [10]
000000 35 99 e3 bc 64 10 38 bb 09 1a a9 bc f1 cf da 3b
       -0.027783016 -0.0028085941 -0.020642297 0.0066776206
000010 2b 60 e4 3b 7c 8c 9c 3c 2a 96 56 3b f0 60 f7 ba
       0.006969472 0.019109957 0.0032743313 -0.0018873494
000020 12 01 0d bc 50 08 7f 3a
       -0.008606212 0.00097287167

idcnn.idcnn.block0.layer1.weight f4 [64, 64, 3]
000000 2a 84 36 3d 40 8e 61 3d 28 8c ef bc 62 af b9 3c
       0.044559635 0.0550673 -0.029241636 0.022666637
000010 4c 63 44 bd c0 f6 c0 bc 72 93 9d 3d da b4 c1 bc
       -0.04794626 -0.02355516 0.076941386 -0.023645807
000020 4e 6e 16 3d 0a d8 77 bc fb 5c cf bc 04 9e ef 3b
       0.03672629 -0.015127191 -0.025312891 0.007312538
000030 05 4d 64 bc 7a 21 64 3b bd 58 e6 bc 0d 39 5b bd
       -0.0139343785 0.0034809993 -0.028118486 -0.053521205
000040 fb a8 87 bc f3 9f 47 3d 38 c1 89 bd 69 cc c1 bc
       -0.016560068 0.048736524 -0.06726307 -0.02365704
000050 e4 b5 5d 3d 3f bf c2 3c 2f 48 58 3c 1e 2f ef 3c
       0.054128543 0.023772834 0.013200804 0.029197272
000060 92 fa 42 3c a8 e9 fc 3c b2 71 bd bc d2 81 07 bd
       0.011900561 0.030873135 -0.023125503 -0.03308279
000070 b8 5e b3 3c 42 7e d6 bc 55 2b 0e bc 86 84 a7 3c
       0.021895751 -0.026183251 -0.008677323 0.020448934
000080 fa a0 89 bc bb 5d bb 3c f6 3b 9f 3d d5 f5 3e bd
       -0.016800392 0.022871843 0.077751085 -0.046621162
000090 19 54 4c bd 6c a4 88 3b 61 05 ad bd a6 bc 1d 3d
       -0.04988489 0.0041699912 -0.084482916 0.038509987
0000a0 5e 56 69 bd bb 7a 0f 3d 79 6e 38 3d 3c 1e 8d 3d
       -0.05696713 0.035029154 0.04502723 0.068905324
0000b0 c4 15 45 bd 60 01 07 bd 08 3b a7 3c a6 fb 63 ba
       -0.04811646 -0.032960296 0.02041389 -0.00086968613
0000c0 82 df e7 3c 22 54 e9 3c f2 93 80 3d 89 f3 49 3d
       0.028304819 0.0284825 0.06278218 0.04930452
0000d0 b4 1b 01 bc 2c 1b 46 bd 6f 26 ab bc 5f b1 db 3c
       -0.00788014 -0.048365757 -0.02089235 0.026817976
0000e0 e8 7d 0d bd e7 06 14 bc 76 6c cf bc 1b 6b 5f bd
       -0.0345439 -0.009034849 -0.025320273 -0.054545503
0000f0 98 3f 99 3d e4 b3 8c 3d 48 fb 11 bb 39 93 c7 bc
       0.07482833 0.06870249 -0.002227502 -0.024362193
000100 39 79 c0 3c d2 ff 2d bd ff 3c 41 bc 45 7e 66 bd
       0.023495303 -0.042480297 -0.011794328 -0.056272764
000110 0b 77 6b bc c5 79 a2 bd 99 eb a8 bd 08 86 ce bc
       -0.014371644 -0.07933382 -0.08248062 -0.025210395
000120 47 ec 5e 3c 3f ea 84 3c d4 cb 67 bd 5c 06 f9 3b
       0.013606138 0.016224978 -0.05659087 0.007599635
000130 f7 4c 40 bd d6 d0 1f 3b 3c c9 8e 3d 6b 5d 7f bc
       -0.0469484 0.002438595 0.06971976 -0.015586237
000140 f1 c1 58 bd 04 a9 32 bd 92 28 0a 3d ab 87 8a bd
       -0.052919332 -0.043618217 0.033730097 -0.06764158
000150 b0 b0 99 bd d6 c0 db bb 26 fc d7 bc 5a b3 7c bd
       -0.075044036 -0.0067063374 -0.026365351 -0.06169448
000160 b7 e0 50 3d 64 70 4e 3c 9c 1a ce bc 62 6a 49 3c
       0.050995555 0.012600038 -0.025159173 0.01229343
000170 59 19 30 3d 16 97 5b 3d a2 e6 4b 3d a8 4f ab 3c
       0.042992923 0.053610884 0.049780495 0.020912006
000180 d3 d9 3b 3d e0 bc 98 3c ae f7 2a bd 01 db 40 bd
       0.04586203 0.01864475 -0.041740112 -0.04708386
000190 83 5a a6 3c 7f c0 c0 3c 5c 5b 4a 3d a0 ff f0 bc
       0.020306831 0.02352929 0.049403533 -0.029418766
0001a0 f0 98 b2 3c 4b 27 b3 3b fc 41 bc 3c 36 91 10 3d
       0.021801442 0.0054673306 0.022980683 0.035294734
0001b0 8e 5d 62 bb 0d 33 89 3d 2b ae bf bc cb b1 0b 3d
       -0.0034540626 0.0669919 -0.02339848 0.034105103
0001c0 70 39 34 bd fe 14 10 3d 89 06 a1 3d 60 f9 cb 39
       -0.04400009 0.03517627 0.078625746 0.00038904976
0001d0 02 ab 70 3d 64 12 7b 3d 2f e1 21 3d 65 15 4e 3d
       0.058756836 0.061296836 0.039521392 0.050313372
0001e0 02 46 8e bd 7c 98 84 3d 30 21 09 3d e7 5a 66 3d
       -0.06946947 0.064743966 0.033478916 0.056239035
0001f0 ed 00 08 3d d7 53 12 bc d0 91 89 3d a0 5f 09 bc
       0.033204008 -0.008931122 0.06717265 -0.008384615
000200 82 60 83 bd b1 dc 16 3d c7 5f 69 bb 9d f4 a7 3c
       -0.06414892 0.03683156 -0.0035610066 0.020502383
000210 56 8d c9 bc a4 de 98 bc 0b 6c 9e 3c 6e ac b7 bc
       -0.024603527 -0.01866085 0.019338628 -0.022421088
000220 95 90 ca bc 73 91 81 bd fd c4 de 3c b4 a6 bb bc
       -0.024727145 -0.0632657 0.02719354 -0.022906639
000230 44 37 69 bd da 46 75 3d 60 53 a5 3a 98 9e 75 bd
       -0.05693747 0.059882022 0.0012613349 -0.0599657
000240 b5 59 b9 bc 1a f7 61 3d 1a 1c 68 3b b8 67 3e bd
       -0.022625783 0.055167295 0.003541714 -0.046485633
000250 49 54 0e bd bc 0b 07 bd 8b 21 52 bd 34 c7 ff 3c
       -0.03474835 -0.032970175 -0.05130152 0.031222917
000260 e2 36 ee 3b 48 19 61 bd 73 ec 43 bd 05 f8 02 3d
       0.007269726 -0.05495575 -0.047832917 0.03197481
000270 d0 cf 5e 3d ca 05 4d bd b3 5a 20 bd 14 88 43 3d
       0.054397404 -0.05005435 -0.039148998 0.047737196
000280 1d d9 56 bd fe 14 5b bd bc f3 41 bd 41 cb 28 3d
       -0.05245315 -0.053486817 -0.047351584 0.041209463
000290 27 cf 73 bc 97 b4 c3 bc e8 46 09 bd 15 fd 17 3c
       -0.014880932 -0.023889823 -0.033514887 0.009276648
0002a0 0b dd 74 3d 5e 87 ca 3b 46 a3 96 bc a1 c6 34 3d
       0.059781116 0.006180688 -0.018388402 0.04413474
0002b0 45 15 59 3d 9e 03 23 3c 21 5b a1 bc fc 3b 25 bd
       0.0529988 0.009949593 -0.019696774 -0.04034041
0002c0 9d 0f 1a bd 26 d7 9d 3c 3b b3 82 bd be ce 22 bd
       -0.037612546 0.01926763 -0.06381842 -0.039747946
0002d0 8f 38 69 bd 90 2c 91 3d f9 5f 38 3d 28 1f 89 bd
       -0.056938704 0.07088578 0.0450134 -0.06695396
0002e0 68 f1 b5 bd 25 52 39 bc ad 58 17 3d be 32 f5 3c
       -0.08883935 -0.011311089 0.036949802 0.029931422
0002f0 9b 33 d9 bb 4e 7f 1d bd 60 f2 0b 3d 4e d8 0a 3b
       -0.0066284663 -0.038451485 0.034166694 0.0021186057
000300 10 c5 69 3d 62 d1 36 3d d7 64 30 bd 60 d4 c1 bb
       0.0570727 0.044633277 -0.04306492 -0.0059152097
000310 1e 0d 70 bd f5 47 b9 3c 2b c7 63 bb 63 41 14 bd
       -0.05860626 0.02261732 -0.0034756165 -0.03619517
000320 e3 08 82 3d d7 9c 43 3c 23 88 93 3d 65 90 8c bd
       0.06349351 0.011939249 0.072037004 -0.068634786
000330 a3 79 9c bb 69 7d 62 3d 99 e1 fc bc 63 33 18 bd
       -0.0047752424 0.05529538 -0.030869292 -0.03715838
000340 72 ca 4e bc 89 02 b0 3d 96 7c 04 3c 52 fe 62 3d
       -0.012621509 0.085942335 0.008086344 0.05541832
000350 41 bf fe bc 18 41 ae bd 06 a0 59 bd 2e c7 41 3d
       -0.031097056 -0.085085094 -0.053131126 0.047309093
000360 8e 80 6b bd 88 ff dd bc 17 83 f9 3c 3c 92 c5 bc
       -0.057495646 -0.027099386 0.030458016 -0.024117582
000370 45 30 a8 3c 51 4a 38 3d 96 99 60 3c 13 f3 6b bd
       0.02053083 0.04499275 0.013708493 -0.05760486
000380 ba 46 a1 3d 97 52 d4 bc ca 1b 03 3d 0d b5 fa bb
       0.07874818 -0.025918288 0.032008924 -0.0076509775
000390 b6 35 fa bb 81 9a 5a 3c 13 27 6b bd 0d 71 71 3c
       -0.0076357974 0.013342501 -0.05741031 0.014736426
0003a0 74 2d 77 3c 8a 39 6f 3d f6 51 f1 bc 12 81 22 bc
       0.01508652 0.058404483 -0.029458027 -0.009918468
0003b0 c2 4b 01 3c 46 a2 2d bc ab 81 d2 3a a5 01 90 bd
       0.007891597 -0.010597771 0.0016060373 -0.07031564
0003c0 dc 74 6b 3c 89 af 84 bd 4a 3e 05 3c 77 b8 f2 b8
       0.014371123 -0.06478793 0.008132527 -0.000115738185
0003d0 de a8 75 3d d4 9d e3 3c 71 3c 4c bd 9f 9b 25 3d
       0.059975497 0.02778522 -0.04986233 0.040431615
0003e0 02 ba 0b 3d 3e 1d 7f bd e8 99 9a b8 52 0a 72 3d
       0.034112938 -0.062283747 -7.3719595e-05 0.059091873
0003f0 c3 b1 1c bc b9 0d c2 3c bd 22 90 3c 1c 07 5b 3d
       -0.009563866 0.023688184 0.01759469 0.053473577

idcnn.idcnn.block0.layer1.bias f4 [64]
000000 7a ef d3 bc 2d 58 de 3c c9 ce 9e 3a 23 51 b7 3c
       -0.025871027 0.027141655 0.001211607 0.022377556
000010 c1 a2 83 bd f3 27 84 3c d7 b3 ac bb 7d b5 90 3d
       -0.06427527 0.01613233 -0.005270462 0.07065866
000020 ec 5c 22 bd 2d d3 a1 bd 16 9a ed 3b 5d 50 16 3d
       -0.0396394 -0.07901607 0.0072510345 0.036697734
000030 eb 9c 46 3a d2 50 59 3d 71 b1 8e bd 11 d8 1d bd
       0.0007576483 0.053055592 -0.06967438 -0.038536135
000040 50 e7 0e bc 38 ad fe 3c 33 d1 19 3d 41 28 d3 3c
       -0.008722141 0.031088457 0.037553024 0.02577603
000050 63 8c c5 3c f9 0d 29 3d df b6 da 39 7e 0e 93 bd
       0.024114793 0.04127309 0.0004171645 -0.071804985
000060 c3 5d 4e 3d 41 04 08 3d e8 61 2e 3c 5a 2e 99 3c
       0.050382387 0.03320718 0.01064346 0.01869886
000070 b2 a8 84 3c ee 38 b4 3c f8 3f 69 3d 34 37 cf bc
       0.016193721 0.021999802 0.05694577 -0.025294878
000080 1f c8 ad 3d 01 9e ea bc 2e 35 09 3c b4 11 80 3d
       0.08485436 -0.028639795 0.008374495 0.062533766
000090 90 c2 61 3d 3e f5 69 3c a3 0e 46 bd 41 7d 72 3d
       0.05511719 0.014279662 -0.048353802 0.059201483
0000a0 b8 a7 22 bd e9 70 f1 3c b5 06 3f 3d 82 9b 86 bc
       -0.03971073 0.029472785 0.046637256 -0.016431574
0000b0 9a 36 b4 bc 2d ad 07 bd b1 92 aa bc 1c 9b 1d bd
       -0.021998692 -0.033124138 -0.020821901 -0.038478002
0000c0 eb 97 e1 3b 61 47 82 bd a7 1b a3 bc a2 c6 d6 3c
       0.006884565 -0.06361271 -0.019910647 0.026217762
0000d0 fe bf 4f bd 3a bd a5 bb 53 6c e3 bc 61 7d 36 bd
       -0.050720207 -0.005057958 -0.027761614 -0.044553164
0000e0 df 17 97 bd b2 52 fc 3c 8a 28 17 3d 55 b8 8a bc
       -0.073776 0.030801151 0.036903895 -0.0169336
0000f0 77 53 ea 3a 63 fe 0c bd ce 56 3d 3d 42 af b6 3d
       0.0017877658 -0.03442229 0.04622536 0.089201465

idcnn.idcnn.block0.layer2.weight f4 [64, 64, 3]
000000 f5 00 d9 b8 3a 0c e6 bb 0c 4d 66 bd d2 c6 1c bd
       -0.000103475446 -0.0070205005 -0.05622582 -0.038275547
000010 c3 ba 3c bd 3d a1 93 bd 35 b5 32 bd b3 06 48 3d
       -0.046076547 -0.07208488 -0.043629844 0.048834514
000020 4f e4 cb 3c 23 5e 52 3d 53 b9 db bb 88 77 6f 3d
       0.02488914 0.051359307 -0.006705442 0.058463603
000030 b6 de 21 3a 30 8a 11 bd d3 e6 8b 3d c7 68 6f 3c
       0.0006174849 -0.035532176 0.068311356 0.014612383
000040 e8 85 0b 3d f4 9a 5a 3c ce 83 fd bc 27 9f 78 bd
       0.03406325 0.013342608 -0.030946638 -0.060698655
000050 93 78 51 3c c0 96 2c 3c b3 80 87 3d 98 56 1d bc
       0.012785095 0.0105339885 0.06616344 -0.009603165
000060 94 bc 68 bd d0 89 29 bc 0f a9 38 bd 03 de 1e 3d
       -0.056820467 -0.0103477985 -0.0450831 0.038785946
000070 03 81 29 bd 20 c0 87 3b 99 d2 a4 3d 32 aa 70 3d
       -0.0413828 0.004142776 0.08047981 0.05875606
000080 24 f2 7f bc 72 f3 6a 3d 1f fe e6 3c db eb 45 bd
       -0.015621696 0.057361074 0.028197346 -0.048320632
000090 6f f2 c4 3b 6c 4b 25 bd de a4 f7 3c 10 fc 05 b9
       0.0060103456 -0.04035513 0.030229982 -0.00012777769
0000a0 de 45 c9 3c dc 56 f3 3b 74 84 f5 bc 91 21 91 3d
       0.024569448 0.007426126 -0.029970385 0.070864804
0000b0 7c 47 ad bc 93 c6 7b bd e5 9d f3 bc d6 7f 4d 3d
       -0.02115225 -0.061468672 -0.029738376 0.050170742
0000c0 d9 be 84 3d ae 6b 05 3d 9f ff 88 3d 20 6d 72 bd
       0.06481714 0.032573394 0.06689381 -0.0591861
0000d0 59 cf a8 bd f9 94 e1 3c 95 d9 1d 3d 4d 23 a1 bd
       -0.082426734 0.027536856 0.03853758 -0.07868061
0000e0 e8 32 d5 bc 63 aa 5b 3d 9d db 39 3d 81 c3 c1 bd
       -0.02602525 0.05362929 0.045375455 -0.094611175
0000f0 76 8d f4 3c dd 1a 38 3d bf c4 39 bd 8b 5e 04 3d
       0.02985261 0.044947494 -0.045353647 0.032316726
000100 19 92 22 bd 74 95 2e 3d 33 47 99 bd 38 29 16 3c
       -0.03969011 0.042623 -0.07484283 0.009165101
000110 4f 68 e2 b9 27 41 31 bd b1 b7 ee bc bb 9c 08 3d
       -0.00043183795 -0.043275025 -0.029140325 0.033352595
000120 57 8e e1 3c 3c 9f 22 3d d4 8e 34 3c 09 fb 84 3d
       0.027533693 0.03970264 0.011020381 0.06493194
000130 3f 40 c9 bc ef c2 8a 3d 88 73 79 bd 68 a9 97 bc
       -0.024566768 0.06775462 -0.060901195 -0.018513396
000140 53 1d 8e 3c 1e be 5b 3d 1f ae 8d bd fe b7 07 bd
       0.017347967 0.053648107 -0.069179766 -0.033134453
000150 22 fb 55 bb 3f 9a fc 3c 96 90 95 bb 54 6f 40 3c
       -0.0032650908 0.030835269 -0.004564355 0.011745293
000160 f6 79 38 3d 51 e9 ba bc 59 8b ad 3b 92 1d b3 3c
       0.045038186 -0.022816332 0.0052961526 0.021864686
000170 2c 5d 0b bd fd b5 1f 3d 4a 74 a6 3d 70 6d 1c bd
       -0.034024402 0.038991917 0.08127649 -0.038190305
000180 52 e8 47 3c fd d3 c4 3c 37 2b 98 3c 32 9b 17 3d
       0.012201386 0.024026865 0.018575294 0.03701324
000190 a1 ba 63 bd d4 92 a4 3d 7f 26 55 bd 6f d9 05 bd
       -0.055597905 0.08035818 -0.052038666 -0.032678064
0001a0 1e e2 30 bc e0 a0 8e bd 7f 9a 77 3d c4 c0 80 bd
       -0.010796098 -0.06964278 0.060450073 -0.06286767
0001b0 d0 8c 01 bc b3 0c 2d 3d c9 05 02 bd 26 08 9a bc
       -0.0079071075 0.04224844 -0.0317438 -0.018802714
0001c0 da e9 8d bd 3e 89 dd bc 1f 5c f8 3c bc 43 90 bc
       -0.06929369 -0.027042981 0.030317364 -0.017610423
0001d0 cc 79 0a 3b e4 0d 39 bd 20 3b 3e 3d 8d fd f0 3c
       0.0021129726 -0.045179263 0.046443105 0.029417777
0001e0 c9 ef 63 bd f5 b7 1c bc 1e 1d 98 3c 13 00 5f bc
       -0.0556486 -0.009565343 0.018568572 -0.013610858
0001f0 1d 85 c1 bc 14 6a fc bc 0c 9e af bc 58 3b ea bc
       -0.023623044 -0.0308123 -0.021437667 -0.02859275
000200 ff bb 29 3d 4f e3 43 3d 99 67 2d bd c5 ed 83 bb
       0.041439053 0.0478242 -0.042335127 -0.004026147
000210 80 5a 8f bd fa 20 71 3d 0b 2e aa 3b b5 fa 69 3c
       -0.069996834 0.05886934 0.005193477 0.014280965
000220 f2 96 80 3d 87 c8 99 bd dc ef 57 3d 73 c7 a5 bc
       0.062787905 -0.07508951 0.052718982 -0.020236706
000230 41 f3 88 bd e0 1c d2 bc 82 99 49 3c f4 10 0f bd
       -0.06687022 -0.025648534 0.0123046655 -0.034928277
000240 ee 6b 86 bd 15 ca 5d bd 94 e8 32 3d 67 0e 7d 3d
       -0.06563555 -0.0541478 0.043678835 0.061781313
000250 d2 79 0b bd 50 67 09 bd ec 99 d7 3b 74 cb b5 3b
       -0.034051724 -0.033545792 0.006579628 0.005547935
000260 f3 5b 26 3c ef f0 cd bc 3d c2 1d 3d 7f a6 cf 3c
       0.010153758 -0.0251393 0.03851532 0.025347946
000270 25 91 ae bc 5d d2 d2 3c d3 8d 3a 3b 09 89 62 3d
       -0.021309445 0.025735075 0.0028465881 0.05530647
000280 38 34 87 3d 7f 49 bc 3c cb ac 26 bd f7 d7 a6 3c
       0.06601757 0.022984264 -0.040692132 0.020366652
000290 85 33 13 3d 75 6a a9 bc a0 cb 34 3d 3b a8 4f bd
       0.035937805 -0.020680645 0.044139504 -0.050697546
0002a0 de cd 28 bc 3f c6 8c 3c 26 d1 a4 bc 92 e9 69 bd
       -0.010302989 0.017184375 -0.020119261 -0.057107516
0002b0 a0 6f d2 bc f5 45 05 3d 7d 71 0c 3d 48 d1 c2 3b
       -0.025687993 0.03253742 0.03428792 0.0059453584
0002c0 ba b0 8a 3d 5d f7 a2 3d 2e bc be bc 7f 9b c4 bc
       0.06771989 0.07957337 -0.02328309 -0.023999928
0002d0 42 50 9a bd 2d a0 92 bd 35 9d 38 3d 9d f7 08 bd
       -0.07534839 -0.07159457 0.0450718 -0.033439267
0002e0 56 41 84 bd 77 61 11 bd 1b 59 6a 3d 1c 53 80 bc
       -0.06457774 -0.03549334 0.057213884 -0.01566463
0002f0 63 64 03 bd 8a 12 89 3d d9 bd e4 3c 7c 78 4e 3d
       -0.032078158 0.06692989 0.027922558 0.05040787
000300 45 0f a9 bb 9f d3 d5 bc 12 aa 21 3d 5c c6 35 3d
       -0.005159291 -0.026101885 0.039468832 0.044378623
000310 fd 53 2d bd 9e 39 38 3a d8 de 6f 3d 17 42 8c bc
       -0.042316426 0.00070276286 0.05856213 -0.017121358
000320 5f 4b 28 bd 3d cc 2d bd 04 3d 17 3d 68 a8 93 bd
       -0.041087504 -0.042431105 0.036923423 -0.07209855
000330 91 0d 37 3d bb a4 a5 3d de af ae 3d 1f 30 13 bc
       0.044690672 0.080880605 0.08529638 -0.008983641
000340 77 97 76 3d a7 68 8e bd f4 95 00 b9 6c 1f ec bc
       0.060203042 -0.069535546 -0.00012262893 -0.028823577
000350 c7 c6 b8 bb fa 90 73 3d 22 07 55 bd bb 60 67 bd
       -0.0056389305 0.059464432 -0.052008756 -0.056488734
000360 cc 55 11 bc 5a 90 26 3d 09 83 8a bd 5c 9c 68 3d
       -0.008870553 0.040665008 -0.06763274 0.05678974
000370 5a 21 84 3c 71 70 c3 3c 8c 25 33 bd b0 87 fa 3c
       0.016129185 0.023857327 -0.04373698 0.030582279
000380 f1 b9 9f bd 64 c9 73 bc 9e 23 36 bd c3 f8 29 bd
       -0.077991374 -0.014879558 -0.04446756 -0.041497003
000390 8c af 79 3d 9f fc 6c bd 70 a3 b5 3d 6f bf 54 bd
       0.06095843 -0.057858106 0.08869064 -0.051940378
0003a0 f5 e6 4d bc 9e 40 f2 3c 0b a2 61 3d 00 ae ec bc
       -0.0125672715 0.029571828 0.055086177 -0.028891563
0003b0 fd c1 78 bd 9e ad 02 3c ef 6a 40 bd bc 30 0b bd
       -0.060731877 0.007975964 -0.04697698 -0.033982024
0003c0 b9 9d 05 bd e6 07 6e 3d 83 f7 5c 3d 33 e0 e7 3c
       -0.03262112 0.058113 0.053946983 0.028305149
0003d0 6a b2 4c 3d 06 3f 5c bd a7 33 d7 ba 44 65 f5 bc
       0.049974836 -0.05377104 -0.0016418592 -0.029955514
0003e0 28 94 c2 bb dc b9 ac bd 4d 51 39 bd ee bc c6 3c
       -0.0059380718 -0.08433887 -0.04524355 0.02426001
0003f0 a8 63 90 bc cd f4 3d 3d 16 26 39 3d 34 0b 69 3d
       -0.017625645 0.04637604 0.045202337 0.05689545

idcnn.idcnn.block0.layer2.bias f4 [64]
000000 d7 8f 81 3d 28 ea 22 bc e6 a5 4f 3d 3b 96 dc 3c
       0.063262634 -0.0099435225 0.050695322 0.026927104
000010 d4 bd 51 bd 69 ee 74 bc 40 19 b8 3c 4d 82 84 3c
       -0.051206425 -0.01494942 0.022472978 0.016175414
000020 4d 7a 85 3c 80 fa d1 3c 58 05 0f bd e8 23 10 3d
       0.01629367 0.025632143 -0.034917206 0.035190493
000030 e0 45 5f 3d 04 d8 68 3c 9b ba 1a 3d 9d e1 a1 bc
       0.054509997 0.014211658 0.037775617 -0.019760901
000040 7b d2 11 bd b0 77 82 3d 5d 28 47 bd 1c 0c 99 3d
       -0.03560112 0.06370485 -0.048622478 0.07473013
000050 8a 63 19 3d b2 de 04 3d f7 af 5d 3d 68 7a e5 3c
       0.037448443 0.03243894 0.05412289 0.02801247
000060 53 da 98 3d 44 e7 2d 3d fb e2 3d bd c6 59 6b 3d
       0.07463517 0.04245688 -0.046359044 0.05745866
000070 b6 69 9f bd ec 9b 96 3c cd 57 82 3d 3c e3 a2 3d
       -0.07783835 0.018384896 0.06364403 0.07953498
000080 2a 4a 3b 3c 8d 89 22 bd a4 90 a2 3d 69 cc 52 bc
       0.011431256 -0.03968196 0.07937744 -0.012866118
000090 8e cb 59 bc 3f 52 17 3d 01 df b7 bc c8 20 e7 bc
       -0.01329316 0.03694367 -0.022445204 -0.028213874
0000a0 b8 06 03 3d ed 4f e9 bc 56 b0 7e bd c7 e4 0d bc
       0.03198883 -0.028480494 -0.062179886 -0.008660502
0000b0 fc d8 b3 bd 64 5d 9b bc cd 23 1f 3d d5 38 48 bd
       -0.08781621 -0.01896543 0.0388525 -0.048882324
0000c0 37 79 c3 bc 7c 32 05 bd 93 1b c1 bd 65 78 a2 bb
       -0.02386151 -0.03251885 -0.094290875 -0.0049582
0000d0 bc c6 9f 3d e5 b6 5b 3c 53 d2 a1 3d 08 c8 8e bd
       0.078015774 0.013410305 0.07901444 -0.06971747
0000e0 fa 3f cb bc 77 2d 82 bd 26 c2 c4 bc 33 21 ae bc
       -0.02481078 -0.06356328 -0.024018358 -0.021256065
0000f0 bc 01 46 bd bb 93 26 3d 4f 6a 7c bd a6 cd 1a 3d
       -0.048341498 0.04066823 -0.06162482 0.037793778

idcnn.idcnn.layernorm.a_2 f4 [10]
000000 29 6e 7f 3f 0e 15 7f 3f a3 8c 7d 3f 5a 2b 80 3f
       0.99777466 0.996415 0.9904272 1.001323
000010 19 9c 7e 3f 31 07 7f 3f a7 25 7f 3f c9 71 7e 3f
       0.99456936 0.9962035 0.9966683 0.9939237
000020 ee 39 74 3f 2a f1 79 3f
       0.95400894 0.9763361

idcnn.idcnn.layernorm.b_2 f4 [10]
000000 4c f8 5b ba 8b cb 41 bb 55 09 63 3a 96 4a 55 3b
       -0.0008391186 -0.0029570784 0.00086607534 0.0032545677
000010 96 ec f8 3c 39 57 66 ba b1 f6 97 bc ed a2 20 bb
       0.03038625 -0.0008786801 -0.018550249 -0.0024511174
000020 68 d4 8d bb e5 67 9f bb
       -0.0043282993 -0.00486468
